model/model_Minist.pth (torch, 104950 bytes, 8 tensors)

weight f4 [10, 1, 5, 5]
0	0x3d688f8f	0.056777533
1	0x3dc41a5e	0.09575342
2	0x3eb66997	0.35627434
3	0xbebf90f7	-0.37415287
4	0x3cb5533e	0.02213442
5	0xbe992473	-0.2991062
6	0x3ea3baff	0.31978604
7	0xbd806638	-0.06269497
8	0x3e528763	0.20559458
9	0xbd3dab68	-0.046306044
10	0x3d328330	0.04358214
11	0xbe4d213a	-0.20032206
12	0xbcdf3dcc	-0.027251147
13	0x3f308162	0.6894742
14	0xbeaeb86a	-0.34125072
15	0x3e963acd	0.29341736
16	0xbe55ab51	-0.20866133
17	0xbe6a4624	-0.22878319
18	0xbec86cb6	-0.3914544
19	0x3f31d013	0.6945812
20	0x3dfe1ccc	0.12407836
21	0x3e01f568	0.12691271
22	0x3e251111	0.16119792
23	0xbe875c12	-0.26437432
24	0xbe60ca16	-0.2195209
25	0xbcc76a5c	-0.024342708
26	0x3dee66ac	0.11640677
27	0x3e5d5b17	0.2161678
28	0x3e13f31a	0.14448205
29	0x3e542a12	0.20719174
30	0x3d7bbed8	0.0614613
31	0x3ec1c071	0.37842134
32	0xbe0c9879	-0.13730039
33	0x3d377e5e	0.044798248
34	0x3e66bbab	0.22532527
35	0xbcf08e0b	-0.029364606
36	0x3eb24cc4	0.34824193
37	0x3dcd36a4	0.100201875
38	0x3e8fe78a	0.28106338
39	0xbe197889	-0.14987387
40	0x3d950b6c	0.07277569
41	0x3e5e7fb7	0.21728407
42	0x3eb4b8d7	0.35297272
43	0x3c10f876	0.0088483
44	0xbe52b616	-0.20577273
45	0x3db9b9fd	0.090686776
46	0x3cd16b8f	0.025563983
47	0x3e77915b	0.24176542
48	0x3edd7440	0.43252754
49	0x3d06c0cd	0.032898713
50	0xbdd063f2	-0.10175313
51	0xbcf3c704	-0.029757984
52	0x3e252c72	0.16130236
53	0xbc7fea4c	-0.015619826
54	0x3e219519	0.15779532
55	0xbd84ea71	-0.06490029
56	0xbe2976ae	-0.16549179
57	0xbdf98916	-0.1218435
58	0xbe563370	-0.2091806
59	0x3ea089b3	0.31355056
60	0xbe34244a	-0.17591968
61	0xbeafe7a3	-0.34356412
62	0xbe9b0c28	-0.30282712
63	0xbd521caa	-0.051296867
64	0x3edcc31f	0.43117616
65	0x3de72170	0.112856746
66	0xbe9f2bbe	-0.3108806
67	0xbe2cd4cd	-0.16878052
68	0x3e845765	0.25847927
69	0x3e859bf4	0.26095545
70	0x3b95a167	0.00456636
71	0xbe3af1c5	-0.1825629
72	0x3e63f607	0.2226182
73	0x3e5aea36	0.21378407
74	0x3ca802cc	0.020509146
75	0xbbfdddd8	-0.007747393
76	0xbda2169c	-0.07914469
77	0x3d892f43	0.066984676
78	0xbd0fdad9	-0.03512082
79	0x3dbc4fb2	0.09194888
80	0x3d0d3622	0.034475453
81	0xbe0862c4	-0.13318926
82	0xbe9fb26a	-0.31190807
83	0xbeb70a37	-0.3574998
84	0xbdb34ce4	-0.087549
85	0x3e8906d5	0.26763025
86	0xbb35f635	-0.002776516
87	0xbeb772f5	-0.35829893
88	0xbf059977	-0.52187294
89	0xbe81862f	-0.25297686
90	0xbe1f9222	-0.15583089
91	0x3f0dfc38	0.5546298
92	0x3f27395f	0.65321916
93	0x3e268d82	0.16264918
94	0xbe641d4a	-0.22276798
95	0x3dcdfd84	0.1005812
96	0xbb51f785	-0.0032038402
97	0x3e07687d	0.13223453
98	0x3ea8fb7a	0.3300436
99	0x3e95480a	0.29156524
100	0x3e5b972f	0.2144439
101	0x3dff4c9d	0.12465785
102	0x3e3839aa	0.17990747
103	0xbe6c06f3	-0.23049526
104	0xbe1dab3c	-0.15397352
105	0x3ebcfbf6	0.3691098
106	0x3dd811b1	0.10550249
107	0x3e1c1917	0.15243946
108	0x3c723e62	0.014785381
109	0x3d9d6d9a	0.076869205
110	0x3e111c5b	0.14170973
111	0x3e74461c	0.2385487
112	0x3d4d3aed	0.050105024
113	0xbd80805c	-0.062744826
114	0x3be336c1	0.0069340174
115	0xbe23ddf8	-0.16002643
116	0x3efe517e	0.4967155
117	0xbe069886	-0.1314412
118	0xbf423ee7	-0.7587723
119	0xbdd0442c	-0.10169253
120	0xbdddbc5f	-0.108269446
121	0x3e43c5f5	0.19118483
122	0x3d998be9	0.07497389
123	0xbef14fbd	-0.47131148
124	0xbe14eda9	-0.14543785
125	0xbee86514	-0.45389616
126	0xbee47f74	-0.4462849
127	0xbebbbcb4	-0.36667407
128	0xbcb85e23	-0.022505825
129	0xbdc10a88	-0.09425837
130	0xbdfd9893	-0.12382617
131	0x3e64e7c7	0.22354041
132	0x3d2d4a9a	0.042307474
133	0xbe8b5010	-0.2720952
134	0x3e9d21f6	0.30689973
135	0x3eb8ba00	0.36079407
136	0xbe90fd0e	-0.28318065
137	0x3e473d8d	0.19457074
138	0x3e09781d	0.13424726
139	0x3dccd86a	0.10002215
140	0x3e99b8e4	0.30023873
141	0xbe24eb7e	-0.16105458
142	0xbf094939	-0.53627354
143	0xbec7373b	-0.38909325
144	0xbe3988a2	-0.18118528
145	0x3da28a3d	0.07936523
146	0x3eb0759a	0.34464723
147	0x3e6bf295	0.23041756
148	0x3d83238f	0.06403267
149	0xbe100699	-0.14065017
150	0xbcaaafd1	-0.020835789
151	0x3e97d8c4	0.29657567
152	0x3eedc20b	0.46437106
153	0x3e75ec16	0.24015841
154	0x3e2b1de1	0.16710617
155	0x3e96dc00	0.29464722
156	0xbeb95499	-0.36197355
157	0x3e0c57de	0.13705394
158	0x3ea7cce2	0.327735
159	0x3ea1b1ba	0.31580907
160	0xbe6c5603	-0.23079686
161	0xbea8854a	-0.3291419
162	0xbee38ea5	-0.44444767
163	0xbd768dc4	-0.060193792
164	0x3e0ec2fc	0.13941568
165	0xbe02de71	-0.12780167
166	0xbe790603	-0.243187
167	0xbea73916	-0.3266074
168	0xbea7e247	-0.32789823
169	0x3e226faf	0.15862916
170	0xbd087be8	-0.03332129
171	0x3db72f52	0.089445725
172	0xbd4d3d64	-0.050107375
173	0xbd04011a	-0.032227613
174	0xbd8110c7	-0.06302028
175	0xbed089c9	-0.40730122
176	0x3d5b12dd	0.053484786
177	0xbec17b1c	-0.37789237
178	0x3ddd51b7	0.108066015
179	0x3dc8bffe	0.098022446
180	0xbea2a432	-0.31765896
181	0xbd235e20	-0.039884686
182	0xbbade3a1	-0.0053066765
183	0x3e679ead	0.22619124
184	0xbe88aab5	-0.2669274
185	0x3d9bddaf	0.07610642
186	0xbd84dc36	-0.064873144
187	0xbd920b7b	-0.07131096
188	0xbde913a9	-0.11380703
189	0xbc9fb4be	-0.019495364
190	0xbe8774ac	-0.264562
191	0x3deb2f0f	0.11483585
192	0x3e763d45	0.2404681
193	0xbe30d47c	-0.17268556
194	0xbcfa5334	-0.030557252
195	0xbed39769	-0.41326454
196	0xbeac4ddb	-0.3365315
197	0x3e94e109	0.29077938
198	0x3ed38166	0.4130966
199	0x3e5d61dd	0.21619363
200	0x3ddf0f59	0.10891599
201	0x3e07517d	0.13214679
202	0x3e8d7b00	0.27632904
203	0x3e822848	0.25421357
204	0x3e47a3da	0.19496098
205	0xbe0f8e6f	-0.14019178
206	0xbf334ea2	-0.7004186
207	0xbef75e60	-0.4831419
208	0xbea546fd	-0.32280722
209	0xbee303f7	-0.44338962
210	0x3ee669b5	0.45002523
211	0x3eecb7d8	0.46234012
212	0x3dc8bbeb	0.098014675
213	0x3d5e3a07	0.054254558
214	0x3e02dde5	0.12779959
215	0xbe35a77e	-0.17739674
216	0x3cde4417	0.027132077
217	0x3ebcfb36	0.3691041
218	0x3edc641c	0.43045127
219	0x3e88dbc4	0.26730168
220	0x3d22e9b7	0.03977367
221	0xbe351c1b	-0.17686503
222	0xbe2c95b8	-0.16853988
223	0xbda3a9e8	-0.079913914
224	0xbe8c2458	-0.27371478
225	0x3a37a3a7	0.0007005282
226	0x3e1f51ca	0.15558544
227	0x3ec8f86b	0.39252028
228	0x3d75808b	0.05993704
229	0x3e2f7d1f	0.17137574
230	0x3d64a05b	0.05581699
231	0x3e0f58f4	0.13998777
232	0x3e08aaa3	0.13346343
233	0x3ef50faf	0.47863528
234	0xbc1c7dcd	-0.009551478
235	0xbe3d6c81	-0.18498422
236	0x3ebbb146	0.36658686
237	0x3e65e611	0.22451045
238	0xbe14228a	-0.144663
239	0xbecadc4d	-0.396212
240	0x3e3fbe7d	0.1872501
241	0xbeb9b44c	-0.36270368
242	0xbf3e0e5e	-0.7424067
243	0xbf535cf8	-0.82563734
244	0xbeded7bc	-0.43523967
245	0xbd5492b1	-0.05189771
246	0xbe90b9bf	-0.28266713
247	0xbd07331a	-0.03300772
248	0x3ea4a051	0.32153562
249	0x3efb741a	0.49112016

bias f4 [10]
0	0xbdb58ba1	-0.08864523
1	0xbeaae009	-0.3337405
2	0xbd703113	-0.05864055
3	0xbe71b85d	-0.23605485
4	0xbd46b672	-0.048513837
5	0xbe9b1158	-0.3028667
6	0xbe81e43b	-0.2536944
7	0xbe6258b0	-0.22104144
8	0xbe8a8950	-0.27057886
9	0xbe19173f	-0.14950274

weight f4 [20, 10, 5, 5]
0	0x3d8081f3	0.06274786
1	0x3db808e2	0.08986069
2	0xbd7d9ad5	-0.061915237
3	0xbc830097	-0.015991492
4	0x3d60e411	0.054905
5	0x3dc8b205	0.097995795
6	0xbd44898f	-0.04798275
7	0xbcfb1629	-0.030650215
8	0x3c5c0a06	0.013430124
9	0xbc130d7d	-0.008975384
10	0x3e41ea6c	0.18937081
11	0x3c559181	0.013035179
12	0xbddca34e	-0.107733354
13	0xbd4e77e4	-0.050407305
14	0x3ca87bbf	0.02056682
15	0x3debacc2	0.1150756
16	0xbce4c5a8	-0.027926281
17	0xbc0151a4	-0.007893
18	0xbd51c35c	-0.0512117
19	0xbd822566	-0.063547894
20	0xbd336f49	-0.0438073
21	0xbc8e39aa	-0.01736148
22	0x3ccf7e8c	0.025328897
23	0xbda04d2f	-0.078272216
24	0x3c834b9f	0.01602727
25	0x3cdd9c06	0.027051937
26	0xbdfdf399	-0.12399978
27	0xbce022b7	-0.027360303
28	0x3cc72d52	0.024313603
29	0xbcf5ba9c	-0.029996209
30	0x3e07df0b	0.13268678
31	0xbd0d2fdd	-0.034469474
32	0xbe04d943	-0.12973504
33	0xbd512d43	-0.051068556
34	0x3a196eff	0.00058530265
35	0x3dc91bac	0.09819731
36	0x3e020ff4	0.12701398
37	0xbdedcfc5	-0.116118945
38	0x3c828be6	0.01593585
39	0xbdba3bf5	-0.09093467
40	0x3d31a3a6	0.043368958
41	0x3e702bb7	0.23454176
42	0x3da42e0c	0.08016595
43	0xbdbdc6f8	-0.09266466
44	0x3cb3ec3e	0.021963235
45	0x3c1cfa9e	0.009581236
46	0x3e531b9e	0.20616004
47	0x3e5ef0cc	0.21771544
48	0x3dc2e6ee	0.095167026
49	0x3e774911	0.24148966
50	0x3cf94e96	0.03043298
51	0xbca78184	-0.0204475
52	0x3d9e2c97	0.077233486
53	0xbdc7e03c	-0.09759566
54	0xbd7a5a6e	-0.061121397
55	0xbe62f3d4	-0.22163326
56	0xbe846d0f	-0.25864455
57	0xbe42a630	-0.19008708
58	0xbe6bd4ef	-0.23030446
59	0xbe27c70f	-0.16384529
60	0xbe1c2463	-0.15248255
61	0xbe9bd11f	-0.30432984
62	0xbd998aaa	-0.07497151
63	0xbd815007	-0.06314092
64	0xbba8e22e	-0.005153916
65	0x3e0db74b	0.13839452
66	0x3d697af5	0.057002027
67	0xbe0e347d	-0.1388721
68	0xbc3fc294	-0.011704106
69	0xbd5787fb	-0.052619915
70	0x3df2c705	0.11854366
71	0x3e311b61	0.172956
72	0xbdae0146	-0.08496337
73	0x3d8c68af	0.06855904
74	0x3e0af665	0.13570555
75	0x3e345970	0.17612243
76	0xbd1282ab	-0.035769146
77	0x3d5985e3	0.0531062
78	0xbd5a73cc	-0.05333309
79	0xbc036844	-0.008020464
80	0x3e2a7c27	0.16648923
81	0x3c57c040	0.013168395
82	0xbd3f263c	-0.046667323
83	0xbdbd8af5	-0.092550196
84	0xbe1d0082	-0.15332225
85	0x3d0ef510	0.03490168
86	0x3e9d9795	0.3077971
87	0x3e2229b0	0.15836215
88	0xbdb2799d	-0.08714602
89	0xbd36047c	-0.04443787
90	0x3d8a12ab	0.06741842
91	0x3df1144e	0.11771451
92	0x3dd8a75e	0.10578798
93	0xbb6af551	-0.0035851786
94	0x3e9eba67	0.3100159
95	0xbe5c368a	-0.2150518
96	0xbe5d18f8	-0.21591556
97	0x3dd18039	0.10229535
98	0x3dfe24d2	0.12409367
99	0xbd11b8fb	-0.0355768
100	0xbd1c4c3c	-0.03815864
101	0x3d4199ac	0.047265694
102	0xbdba36f0	-0.0909251
103	0xbd700628	-0.05859962
104	0xbafdfd34	-0.0019377829
105	0xbdeac4e2	-0.11463334
106	0xbdf93308	-0.121679366
107	0xbda939c7	-0.08262973
108	0xbd1044ad	-0.035221744
109	0xbdce7533	-0.10080948
110	0xbe27d45a	-0.163896
111	0xbe3b0209	-0.18262495
112	0xbd7d49a3	-0.061837804
113	0xbe3a2ee7	-0.18181954
114	0xbe17c28a	-0.14820305
115	0xbdacfcc8	-0.08446652
116	0xbe4f93a4	-0.20271164
117	0x3cc153bf	0.023599504
118	0xbdbe56eb	-0.09293922
119	0xbe1c9caf	-0.15294145
120	0x3ad2cb49	0.0016082312
121	0x3c770a44	0.015078131
122	0xbda2e2d4	-0.0795342
123	0x3de26945	0.11055235
124	0xbea7a73b	-0.32744774
125	0xbb5257ac	-0.0032095714
126	0x3d15c686	0.03656628
127	0xbd4c67b3	-0.049903583
128	0xbca86d23	-0.020559853
129	0x3b8d2d31	0.0043083658
130	0x3ccd0739	0.025027858
131	0x3cda3887	0.026638282
132	0xbde95b80	-0.11394405
133	0x3c408ecf	0.011752798
134	0xbd5e08ab	-0.054207485
135	0x3dc59c62	0.09648968
136	0x3e867ef0	0.2626872
137	0xbcf21120	-0.029549181
138	0xbd2849e4	-0.041086093
139	0x3c8ce428	0.017198637
140	0x3def090f	0.1167165
141	0x3cc13230	0.023583502
142	0x3e2d3244	0.16913706
143	0x3d4a695c	0.049416885
144	0xbd2304f7	-0.039799657
145	0xbc58dc65	-0.01323614
146	0xbe4ff90e	-0.2030985
147	0xbda8f486	-0.08249764
148	0x3dbeb8dd	0.093126036
149	0xbe0088ef	-0.12552236
150	0x3e335158	0.17511499
151	0xbcf4dc05	-0.02989007
152	0xbcc4b755	-0.0240132
153	0xbe22fedc	-0.15917534
154	0x3bfa01d8	0.0076296143
155	0xbe372bb9	-0.17887773
156	0x3c7912c2	0.015202226
157	0x3c4263bb	0.011864598
158	0x3cf42a03	0.029805189
159	0x3ceb5cf1	0.028730841
160	0xbe053a66	-0.13010558
161	0xbdc123b0	-0.09430635
162	0x3e4a2354	0.19740039
163	0x3d853718	0.06504649
164	0xbce446d1	-0.0278658
165	0x3d8914d5	0.066934265
166	0x3e12fbef	0.14353918
167	0x3ce3a3c8	0.027788058
168	0xbde2c4d0	-0.11072695
169	0xbdd3e987	-0.10347276
170	0x3d9961ac	0.074893326
171	0xbe11618a	-0.14197364
172	0xbdb5355d	-0.08848069
173	0x3d21b24a	0.03947667
174	0xbd35a3f5	-0.044345815
175	0x3d045b2c	0.03231351
176	0xbb94d64b	-0.0045421473
177	0xbcb7ee05	-0.022452364
178	0x3d183f96	0.037170015
179	0x3cd6d177	0.026222927
180	0x3d72254f	0.05911761
181	0xbc9976df	-0.01873344
182	0xbdd08596	-0.101817295
183	0x3c0d41eb	0.008621673
184	0xbd5d377c	-0.054007992
185	0x3e2ea496	0.17054972
186	0xbdb7b8b0	-0.08970773
187	0xbd896994	-0.067095906
188	0xbcde7043	-0.02715314
189	0xbd81697e	-0.06318949
190	0x3db408ab	0.08790716
191	0x3d3959da	0.045251705
192	0xbd9174d7	-0.071023636
193	0x3d057e53	0.032591175
194	0x3d2cd5aa	0.042195953
195	0xbe5b49e1	-0.21414901
196	0xbd8fbc83	-0.07018378
197	0x3d4d8ce6	0.0501832
198	0xbc88e41f	-0.01671034
199	0x3d865e65	0.06560973
200	0x3dc5a82c	0.09651217
201	0x3d8ef83b	0.0698094
202	0x3d19c5aa	0.037542023
203	0x3d0639a0	0.0327698
204	0xbcaa32d9	-0.0207762
205	0x3dee3f5e	0.1163318
206	0x3d5b8fcd	0.053603936
207	0x3db0b857	0.0862891
208	0x3ce9e986	0.028553735
209	0x3d00c7f4	0.03144069
210	0xbe1e1c66	-0.1544052
211	0xbc923f1b	-0.017852357
212	0xbdbd71d4	-0.092502266
213	0xbd5a6132	-0.05331535
214	0xbd7df651	-0.062002484
215	0xbe85074e	-0.25982136
216	0xbd110edb	-0.035414558
217	0xbcc8d873	-0.024517274
218	0xbd5508bc	-0.052010283
219	0x3da939fe	0.08263014
220	0x3d1e2b38	0.038615435
221	0xbe3f1bec	-0.18662995
222	0xbe430906	-0.19046411
223	0xbc21384b	-0.009840081
224	0x3d803c28	0.06261474
225	0x3da54e75	0.08071605
226	0x3e09eb23	0.13468604
227	0x3db5386b	0.088486515
228	0x3d0bb479	0.03410766
229	0x3d2bd1ea	0.041948237
230	0xbdcff39c	-0.10153887
231	0x3c951fdf	0.018203674
232	0x3d0e9881	0.034813408
233	0x3cfe6381	0.031053307
234	0xbc0d4dea	-0.008624533
235	0xbe3876d4	-0.1801408
236	0xbe31562a	-0.17318025
237	0xbe087f8f	-0.1332991
238	0xbca86642	-0.020556573
239	0xbd01bcfd	-0.031674374
240	0x3deb314f	0.11484014
241	0x3dbc253b	0.09186789
242	0xbe152db0	-0.1456821
243	0xbdd9bbe9	-0.10631544
244	0xbce16552	-0.027514134
245	0x3cc7179e	0.024303254
246	0xbd85aa08	-0.065265715
247	0xbc8d4fc7	-0.017249955
248	0xbe0c049d	-0.13673635
249	0xbdf80b80	-0.121115685
250	0x3bd3d114	0.006464133
251	0x3d12781a	0.03575907
252	0xbd923ed8	-0.07140893
253	0x3d4925b4	0.049108222
254	0x3c8b5cf4	0.017012097
255	0xbd23ca58	-0.039987892

bias f4 [20]
0	0xbda95ac5	-0.08269266
1	0xbd58b29e	-0.052904718
2	0xbd43b414	-0.047779158
3	0x3df06b0e	0.11739169
4	0xbe17e1a1	-0.14832164
5	0xbc9e171e	-0.019298133
6	0xbdd4bb30	-0.10387266
7	0xbc8db07f	-0.017296074
8	0xbd0adf7a	-0.03390453
9	0xbbebff46	-0.007202062
10	0xbd73cdcb	-0.05952243
11	0x3cd7830b	0.026307603
12	0x3bd43a4c	0.006476676
13	0xbcc07fba	-0.023498405
14	0xbe028de5	-0.12749441
15	0x3c430d3f	0.011905014
16	0xbdb235bf	-0.087016575
17	0xbde77890	-0.11302292
18	0xbdb1c1e6	-0.08679561
19	0x3e080d6a	0.13286367

weight f4 [50, 320]
0	0xbd9b40b9	-0.07580704
1	0x3d3db66d	0.046316553
2	0x3d46c67a	0.048529126
3	0xbcaf8547	-0.021425856
4	0xbd501edf	-0.05081069
5	0xb9ec08c6	-0.00045019964
6	0xbc6e90df	-0.014560907
7	0x3bc199c7	0.0059082243
8	0x3d364acc	0.044504926
9	0x3cf68237	0.030091388
10	0xbde0a3be	-0.10968731
11	0x3cd2afa5	0.02571852
12	0xbcd1ddd4	-0.025618471
13	0xbceee256	-0.02916066
14	0xbc32521f	-0.010883837
15	0x3d59c8b1	0.05316991
16	0x3c9d7832	0.019222353
17	0x3cf1d491	0.029520305
18	0x3d02460a	0.031805076
19	0xbd51378e	-0.05107837
20	0xbd90b02b	-0.070648514
21	0x3d28d535	0.041218955
22	0x3d8672fe	0.06564902
23	0x3e0e9461	0.1392379
24	0xbc2d35bd	-0.010571894
25	0xbd7aaeff	-0.061202046
26	0xbd80a33b	-0.06281134
27	0xbcb8dea2	-0.022567097
28	0x3b973942	0.00461498
29	0xbdc084c5	-0.09400324
30	0xbe1122b6	-0.14173397
31	0x3cff1486	0.031137716
32	0x3d9c424c	0.076298326
33	0x3ca02e51	0.019553335
34	0x3c3c957b	0.011510248
35	0x3c1b0f2f	0.009464069
36	0x3d16e1d4	0.03683646
37	0x3ccc5089	0.024940746
38	0xbdef79c9	-0.116931506
39	0xbd42d88b	-0.047569793
40	0xbc56ae06	-0.013103014
41	0x3d252fe7	0.040328886
42	0xbbd534a5	-0.00650652
43	0xbbca72f0	-0.0061782524
44	0x3d03f112	0.032212324
45	0x3bad39c6	0.005286428
46	0x3b6586f3	0.0035023063
47	0x3cddf4bc	0.027094238
48	0x3cb71cbc	0.022352569
49	0xbd82027c	-0.0634813
50	0xbd8f9098	-0.07010001
51	0xbd245f95	-0.040130217
52	0xbce508f6	-0.027958374
53	0x3ca56d17	0.02019362
54	0x3bb059a2	0.005381779
55	0xbc5a54c6	-0.013325876
56	0xbd7902dd	-0.060793746
57	0xbca5b462	-0.020227615
58	0x3c2f0a22	0.010683568
59	0xbc1fcec1	-0.009753884
60	0x3d5bffb4	0.053710654
61	0xbbea182e	-0.0071439957
62	0xbc4de6cc	-0.012567233
63	0x3d7ee629	0.062231217
64	0xbd4ada0a	-0.049524345
65	0xbd5b816c	-0.053590223
66	0x3d0d5773	0.034507226
67	0xbd1220ce	-0.035675816
68	0xbd29493e	-0.041329615
69	0x39ae80b5	0.0003328376
70	0xbe0d256b	-0.13783805
71	0xbd94c295	-0.07263676
72	0x3d8f962c	0.07011065
73	0xbe2d5206	-0.1692582
74	0xbdb98f2e	-0.090605125
75	0x3ae4f3c1	0.0017467664
76	0x3db3c320	0.087774515
77	0x3d5d43d1	0.054019753
78	0x3d1fca63	0.03901137
79	0x3c0a5d30	0.008445069
80	0xbd051b8c	-0.032496974
81	0x3bb7eda8	0.0056130476
82	0x3c8a90b0	0.016914696
83	0x3c61ddf5	0.013785829
84	0xbc5627da	-0.013071025
85	0x3c057602	0.008145811
86	0xbd50a17e	-0.05093526
87	0xbdb67478	-0.089089334
88	0x3d214d52	0.03938038
89	0xbc40995f	-0.0117553165
90	0x3e20388e	0.15646574
91	0xbd565a4d	-0.05233221
92	0x3cf6bebc	0.030120246
93	0x3d01bde8	0.03167525
94	0xbcb7f2af	-0.022454588
95	0xbc6bb3c9	-0.014386126
96	0x3d93acbd	0.072106816
97	0x3d4b63b7	0.049655642
98	0xbc1c4999	-0.009539031
99	0x3d0e5d2d	0.034756828
100	0xbd0d32c0	-0.034472227
101	0x3bfa6e34	0.007642532
102	0xbd67300f	-0.056442317
103	0xbb5ce4b4	-0.0033705654
104	0x3d3d6d76	0.04624697
105	0xbd1934cd	-0.03740387
106	0x3c64eeea	0.013972977
107	0x3d1b2b65	0.03788318
108	0xbb86ecf7	-0.004117604
109	0xbd7ccb50	-0.06171733
110	0xbcb3afd3	-0.021934425
111	0xbcaefec5	-0.021361718
112	0xbd3384b0	-0.043827713
113	0x3d5b77de	0.05358111
114	0x3d3bb935	0.045830924
115	0x3bc4cb69	0.0060056937
116	0x3b82c972	0.0039912993
117	0xbd56fdc0	-0.05248809
118	0xbd04e8b0	-0.03244847
119	0x3c9d76dd	0.019221717
120	0x3d897e08	0.06713492
121	0x3a69ec25	0.0008923433
122	0x3d4cdabb	0.050013285
123	0x3c4bfe71	0.0124508
124	0x3ca077fb	0.019588461
125	0x3d67029e	0.05639898
126	0xbd87243f	-0.0659871
127	0xbd075b8f	-0.0330463
128	0xbd9c3f2c	-0.076292366
129	0x3c6634d7	0.014050684
130	0xbd99bb4a	-0.07506426
131	0xbd6b4f17	-0.057448473
132	0xbd157273	-0.0364861
133	0x3d044f00	0.032301903
134	0x3c4d13e4	0.012516949
135	0xbd2e9398	-0.042621225
136	0xb9f05dff	-0.000458464
137	0x3d8789b3	0.06618061
138	0x3e35b79f	0.17745827
139	0xbd5bd83f	-0.053673025
140	0x3b0cba04	0.0021473179
141	0x3cf7929e	0.03022128
142	0x3d23c079	0.039978478
143	0xbda45cb0	-0.08025491
144	0xbd54162b	-0.051778954
145	0x3c89ebbe	0.016836043
146	0x3c367ac7	0.011137671
147	0x3d8ce320	0.06879258
148	0xbdb387b2	-0.08766116
149	0xbc0f4f8d	-0.008746994
150	0xbd059a46	-0.03261783
151	0x3c1aedb0	0.009456083
152	0xbd51c646	-0.05121448
153	0x3b3c671f	0.0028747988
154	0x3d344320	0.044009328
155	0x3c93e4b4	0.01805339
156	0x3d0a2141	0.03372312
157	0xbcf80c0e	-0.030279186
158	0xbcf03479	-0.029321896
159	0xbccb28fa	-0.024799813
160	0x3d0422e8	0.03225985
161	0xbd2db65b	-0.042410236
162	0xbd804d3b	-0.062647305
163	0xbd867309	-0.0656491
164	0xbd37aa19	-0.044839952
165	0xbd44bd80	-0.048032284
166	0xbc78282f	-0.015146299
167	0x3d89e970	0.06733978
168	0x3bb86b55	0.0056280294
169	0xbb104945	-0.0022016328
170	0x3c1e5634	0.009664107
171	0x3ddd27c0	0.10798597
172	0xbc74826a	-0.014923671
173	0x3dcf04c0	0.10108328
174	0x3dd31fef	0.10308825
175	0x3d32a8e5	0.0436181
176	0xbd03fb2a	-0.03222195
177	0x3d02d02e	0.031936817
178	0x3d588cc5	0.052868623
179	0xbcbec119	-0.023285436
180	0x3d5ea229	0.054353867
181	0xbd54dbe0	-0.0519675
182	0x3d196d25	0.037457604
183	0xbdb0eba5	-0.086386956
184	0xbd8271e8	-0.06369382
185	0xbce116f2	-0.027476761
186	0x3b88f4f6	0.0041795922
187	0x3d8ba765	0.06819037
188	0x3c2edf9c	0.01067343
189	0xbdeeb74b	-0.11656054
190	0xbd10b6fd	-0.03533076
191	0xbc169568	-0.009190895
192	0x3d18b8e5	0.037285704
193	0xbd85a9fb	-0.06526562
194	0xbd3a5949	-0.045495305
195	0xbd6c6265	-0.057711024
196	0x3cdb80c8	0.026794806
197	0x3b909470	0.0044122264
198	0xbd3580f3	-0.04431243
199	0xbdd0d844	-0.101974994
200	0xbe367ea3	-0.17821746
201	0x3d046c69	0.03232995
202	0xbcad5d95	-0.021162787
203	0xbd19f703	-0.037589084
204	0xbca52336	-0.020158391
205	0x3d853370	0.065039515
206	0x3cfc244b	0.030779025
207	0x3d403aa1	0.046930913
208	0x3d044efa	0.03230188
209	0x3d704a68	0.05866471
210	0x3d8aa89a	0.067704394
211	0xbdc1fcc8	-0.09472042
212	0xbd756b95	-0.05991705
213	0xbd38120c	-0.044939086
214	0xbc2a8cdb	-0.010409559
215	0x3d84ebf5	0.06490318
216	0xbb1c4a7e	-0.0023848112
217	0x3d4d1ef0	0.050078332
218	0x3d1bf4b6	0.03807517
219	0x3cbe8339	0.023255931
220	0x3da6614d	0.081240274
221	0x3d6ee317	0.05832204
222	0x3c73a2cf	0.01487036
223	0xbc86bdd8	-0.016447946
224	0xbc681472	-0.014165031
225	0xbc0d0b57	-0.008608661
226	0xbcaabef1	-0.020843001
227	0x3c5e3487	0.013562328
228	0xbd6ba154	-0.0575269
229	0xbd0c94bd	-0.034321535
230	0x3c90ed5d	0.017691309
231	0x3b615c9a	0.003438747
232	0xbd23f9f7	-0.040033307
233	0xbe133a79	-0.14377774
234	0x3b4e3a6a	0.0031467923
235	0x3ddc229c	0.10748789
236	0x3dafc5ab	0.08582624
237	0x3c9c82a2	0.01910526
238	0x3d96ac27	0.07357054
239	0x3d739c73	0.059475373
240	0xbcee0eca	-0.029059786
241	0xbde72d2f	-0.11287915
242	0x3bd62db9	0.0065362123
243	0x3d9f0ca1	0.07766081
244	0x3c8654f6	0.016397934
245	0x3c71342e	0.014721913
246	0x3ca98de7	0.020697547
247	0x3ca21d40	0.019789338
248	0x3bf9e914	0.007626662
249	0xbdb2a87a	-0.087235406
250	0xbdea851b	-0.11451169
251	0xbd8d4baf	-0.06899201
252	0x3d6662bb	0.0562465
253	0xbd3c72d8	-0.04600796
254	0xbb8e4e1f	-0.004342809
255	0xbd1c3bdd	-0.038143028

bias f4 [50]
0	0xbd091907	-0.033471134
1	0x3d654bf6	0.055980645
2	0xbc217356	-0.009854158
3	0x3d04be49	0.032408033
4	0x3d474307	0.048647907
5	0xbd1ef221	-0.03880513
6	0xbd29f7d6	-0.04149612
7	0xbb4ee822	-0.0031571467
8	0xbd0e06e7	-0.03467455
9	0x3d9f0b6b	0.0776585
10	0x3a796ff0	0.0009515276
11	0xbbcdf2f6	-0.0062850667
12	0xbc746b88	-0.014918216
13	0x3d4e6414	0.05038841
14	0xbc22c66a	-0.009935001
15	0x3ca0c23f	0.019623874
16	0xbd874d43	-0.066065334
17	0xbdbe2feb	-0.092864834
18	0x3ccce3d7	0.025010986
19	0x3b36053c	0.0027774116
20	0xbc4fa3af	-0.012673303
21	0x3c7e36d9	0.015516006
22	0xbd2f4749	-0.042792592
23	0xbd71e261	-0.059053782
24	0x3c3ebc66	0.011641597
25	0x3c21a0cb	0.009864996
26	0x3c80bd98	0.015715405
27	0xbdb39d06	-0.08770184
28	0xbd8246f0	-0.063611865
29	0x3d1b6c3c	0.037945017
30	0xbd833acd	-0.064077
31	0xbc8b6ea6	-0.017020535
32	0x3ca738ab	0.020412764
33	0x3da08ea2	0.07839705
34	0x3cc41a83	0.023938423
35	0xbd491678	-0.049093693
36	0x3d5cfa22	0.053949483
37	0xbcf24753	-0.029575026
38	0xbd699344	-0.05702521
39	0xbc8e6bc0	-0.017385364
40	0xbd01913a	-0.03163264
41	0x3da7e983	0.08198836
42	0xbb8b0280	-0.0042422414
43	0x3d3b91ac	0.04579322
44	0xbd3e1c28	-0.04641357
45	0xbdb7033a	-0.08936162
46	0xbd25fc56	-0.04052385
47	0x3d6205ec	0.05518143
48	0x3ca5c467	0.020235253
49	0x3c1048c2	0.008806409

weight f4 [10, 50]
0	0x3d82df5f	0.06390261
1	0xbda91f21	-0.082578905
2	0x3e62428d	0.220957
3	0x3d78e639	0.060766432
4	0xbd8d2700	-0.06892204
5	0xbdcb53b1	-0.09928072
6	0x3de8b8b1	0.11363352
7	0x3d019215	0.031633455
8	0x3c8caefb	0.017173281
9	0x3ea9669b	0.33086094
10	0xbd122a7c	-0.035685048
11	0xbe0fd90c	-0.1404764
12	0x3d9cb137	0.076509885
13	0x3dae1c1a	0.08501454
14	0xbed7a96c	-0.42121446
15	0xbdea4c74	-0.114403635
16	0xbd48af61	-0.04899538
17	0xbd7c1095	-0.06153925
18	0xbd6e767b	-0.05821846
19	0x3e9015e5	0.28141704
20	0x3e5f1cd0	0.21788335
21	0x3e68e4b5	0.22743495
22	0xbe7ddd4c	-0.2479145
23	0xbe05aebf	-0.13054942
24	0xbe67c112	-0.22632244
25	0x3e6c059a	0.23049012
26	0xbd7f11ba	-0.062272765
27	0x3dc2b2e3	0.09506776
28	0x3d2b4295	0.041811544
29	0x3df61f34	0.1201767
30	0x3e04db50	0.12974286
31	0xbe1c4c71	-0.15263535
32	0x3cec37bb	0.028835168
33	0x3e54ca7e	0.2078037
34	0xbe4c2142	-0.19934562
35	0xbdd249a2	-0.102679506
36	0x3e589e6d	0.21154185
37	0x3b8dd98c	0.004328912
38	0x3e1d5542	0.15364555
39	0xbcc81115	-0.024422208
40	0xbe5b4cad	-0.21415968
41	0x3e176b98	0.14787138
42	0xbd0abff1	-0.033874456
43	0x3e8db5a6	0.2767765
44	0x3c483def	0.012221797
45	0xbe87a7d3	-0.26495227
46	0x3bf5a42a	0.0074963765
47	0x3dc62b07	0.096761756
48	0x3daa0ff8	0.08303827
49	0x3df6c07b	0.120484315
50	0xbd850457	-0.064949684
51	0x3de45c14	0.11150375
52	0xbcc8cd1a	-0.024511863
53	0xbea793f4	-0.32730067
54	0xbd043b8b	-0.032283347
55	0x3e63c213	0.22242002
56	0xbe3cce4d	-0.18438073
57	0xbe340c85	-0.17582901
58	0xbe83de39	-0.2575548
59	0x3c9577bd	0.018245572
60	0xbe317416	-0.1732944
61	0xbd03ae0d	-0.03214841
62	0xbe1fd417	-0.1560825
63	0x3de7fd0f	0.11327564
64	0xbe52d944	-0.20590693
65	0x3e80f086	0.25183505
66	0xbdbb4783	-0.09144499
67	0xbe9330a2	-0.2874804
68	0xbcca4d15	-0.024694959
69	0xbddbc0d3	-0.10730138
70	0xbe8156fa	-0.2526167
71	0xbe448aee	-0.19193622
72	0xbe67175a	-0.22567502
73	0x3c0e78ec	0.008695822
74	0x3df20f1e	0.118192896
75	0x3d8840b7	0.066529684
76	0x3f04f20e	0.51931846
77	0xbe0d14bd	-0.13777442
78	0xbe540d45	-0.20708187
79	0x3cc1e649	0.023669379
80	0xbe6b2763	-0.22964244
81	0x3e03e4bc	0.12880224
82	0x3e945bad	0.28976193
83	0x3e1e7dcc	0.15477675
84	0x3e3a6d3e	0.18205735
85	0xbdd537a3	-0.104110025
86	0x3dc46661	0.0958984
87	0x3dfe75e9	0.12424833
88	0xbe037491	-0.12837435
89	0xbd7dd4d8	-0.06197056
90	0xbe486b10	-0.19572091
91	0x3baac7e4	0.005211817
92	0x3ea1411e	0.31494993
93	0x3c44ef1a	0.012019897
94	0xbdb0702b	-0.08615144
95	0xbc9447fe	-0.018100735
96	0xbd82806e	-0.06372152
97	0x3e0f226d	0.13977976
98	0x3e870e2a	0.26377994
99	0xbd34cfa5	-0.044143338
100	0xbe295878	-0.16537654
101	0xbe1973cb	-0.14985578
102	0x3e5614ce	0.20906374
103	0xbdafe14c	-0.08587894
104	0xbe2bdea0	-0.16784143
105	0xbd1ebb6f	-0.03875297
106	0x3e336a56	0.17521033
107	0xbdd77585	-0.10520462
108	0x3c9bf2d9	0.019036697
109	0xbe576abc	-0.2103681
110	0x3e263d8b	0.16234414
111	0xbe58ad95	-0.21159966
112	0x3d7f2fc4	0.062301412
113	0x3dd7b8d8	0.10533303
114	0xbdee7a32	-0.11644401
115	0x3d5ee68c	0.054419085
116	0x3e19fe4b	0.15038411
117	0x3e04a930	0.12955165
118	0xbcc823c9	-0.024431126
119	0xbd4b5991	-0.049645964
120	0xbe13665b	-0.14394514
121	0xbde49e98	-0.11163062
122	0x3da1f0cf	0.07907259
123	0x3e1682ad	0.14698286
124	0xbe8fb8b5	-0.28070608
125	0xbe1f4bb9	-0.1555623
126	0x3e2ee24b	0.17078511
127	0x3eb7f05d	0.3592557
128	0xbd6fbb29	-0.0585281
129	0xbdbc79a5	-0.09202889
130	0x3e0711ef	0.13190435
131	0xbe0bdfd9	-0.1365961
132	0xbd471f07	-0.048613574
133	0xbe0e01e8	-0.13867915
134	0xbe6c0402	-0.23048404
135	0x3cd28394	0.025697507
136	0xbe7850b8	-0.24249542
137	0x3d2c529a	0.042070962
138	0x3d7dc2e5	0.061953444
139	0xbdb8ff28	-0.09033042
140	0x3d45ec24	0.048320904
141	0xbe13b16b	-0.14423148
142	0xbdfeb934	-0.124376684
143	0x3e5de210	0.21668267
144	0xbd82ca4d	-0.06386242
145	0xbc9fdd3f	-0.019514678
146	0xbe71c85f	-0.23611592
147	0x3ddec076	0.10876553
148	0x3e51aa44	0.20475107
149	0xbe6b0a3b	-0.22953121
150	0x3dcb49fd	0.099262215
151	0xbe6d9a6d	-0.2320344
152	0xbe8d59f4	-0.2760769
153	0x3e117ea4	0.14208466
154	0x3e761aa0	0.24033594
155	0x3deb67e5	0.11494426
156	0x3ccbf927	0.024899079
157	0x3c380957	0.011232696
158	0x3ea26f87	0.31725714
159	0xbe86de0d	-0.26341286
160	0xbe37859b	-0.1792206
161	0x3caabeb3	0.020842886
162	0x3dcb2900	0.099199295
163	0x3daae898	0.08345145
164	0x3e370de1	0.17876388
165	0x3dd83d9d	0.10558627
166	0xbab3d5e3	-0.001372036
167	0xbc71423b	-0.014725263
168	0x3e401961	0.18759681
169	0xbda9c3e2	-0.08289315
170	0xbe0474d8	-0.12935197
171	0x3c8dadee	0.01729485
172	0x3d3f2849	0.04666928
173	0x3d88df25	0.066831864
174	0xbdd02700	-0.10163689
175	0x3d0e03e9	0.034671698
176	0x3ded5028	0.11587554
177	0x3e8c111e	0.2735681
178	0x3ce534f3	0.02797935
179	0xbe33ce6c	-0.17559212
180	0x3d94571e	0.07243179
181	0x3deb4e8a	0.114895895
182	0xbd72bd34	-0.05926247
183	0xbdb6e4dc	-0.0893037
184	0xbd8bc17b	-0.06824013
185	0xbe05bdb2	-0.13060644
186	0x3ce6af4d	0.028159762
187	0x3e344226	0.17603359
188	0x3e06ad28	0.13151991
189	0x3dd61f1a	0.10455151
190	0xbe0f1bda	-0.13975468
191	0xbe6fdc25	-0.23423822
192	0xbcac2348	-0.021012917
193	0xbe91ae4f	-0.284533
194	0xbdcb8883	-0.09938147
195	0xbbe93ce6	-0.0071178554
196	0x3e9bc3a8	0.3042271
197	0xbe8bbf20	-0.27294254
198	0x3e3d0057	0.18457161
199	0x3d1ec496	0.038761698
200	0x3e4062b5	0.18787654
201	0x3e59dc22	0.2127538
202	0xbc95c079	-0.018280255
203	0x3d362eae	0.04447811
204	0x3d64ff33	0.05590744
205	0xbe20259a	-0.15639344
206	0x3de26f58	0.110563934
207	0x3e7114df	0.23543118
208	0xbe9f2d60	-0.31089306
209	0x3d0d0303	0.0344267
210	0x3ea1527f	0.31508252
211	0x3e334687	0.17507373
212	0xbe02dece	-0.12780306
213	0xbe424016	-0.1896976
214	0x3de606b6	0.11231749
215	0x3d8a336e	0.06748091
216	0xbd92a93a	-0.07161184
217	0x395f4926	0.00021294187
218	0x3dfd7bdf	0.12377142
219	0xbe01c0b6	-0.1267117
220	0xbd227f13	-0.03967197
221	0xbb2c61c8	-0.00263034
222	0x3e2cce50	0.16875577
223	0x3df1b8ce	0.11802827
224	0x3c8e8179	0.017395722
225	0x3e35d50e	0.17757055
226	0xbe115ecc	-0.14196318
227	0x3d822ca5	0.063561715
228	0x3e7ee1ae	0.24890777
229	0xbd67efa7	-0.056625035
230	0xbe855ea9	-0.26048782
231	0x3e2ede32	0.17076948
232	0x3d7e838b	0.062137168
233	0xbe17ff56	-0.14843497
234	0x3d9839ad	0.07432876
235	0xbeabcdcd	-0.3355545
236	0xbdf2f5ae	-0.11863266
237	0x3e2f09fb	0.17093651
238	0xbdb02575	-0.08600894
239	0xbca0fc31	-0.019651504
240	0x3e8efb75	0.2792622
241	0x3e206e10	0.15666986
242	0x3e56fd33	0.20995025
243	0x3e281218	0.16413152
244	0xbe22e1b8	-0.15906417
245	0x3d9b4637	0.07581752
246	0xbcf2285a	-0.029560257
247	0x3c681a93	0.014166492
248	0xbc007858	-0.007841192
249	0x3e049875	0.12948783
250	0xbe1b7350	-0.15180707
251	0x3e3ec2d4	0.18629009
252	0xbe53b0b2	-0.20672873
253	0xbdf6f619	-0.12058658
254	0xbe1c589d	-0.15268178
255	0x3e008ac4	0.12552935

bias f4 [10]
0	0xbb15309c	-0.002276457
1	0x3ce6d011	0.028175386
2	0xbe66f3aa	-0.22553888
3	0xbc06148e	-0.008183612
4	0xbcb151aa	-0.021645386
5	0x3cea1133	0.028572654
6	0xbcb27e7a	-0.021788824
7	0xbd5a8bd6	-0.053356014
8	0xbc8e0893	-0.017338073
9	0x3d3356f1	0.043784086
